{"class_name": "Model", "config": {"name": "model_4", "layers": [{"name": "data", "class_name": "InputLayer", "config": {"batch_input_shape": [null, null, null, 3], "dtype": "float32", "sparse": false, "name": "data"}, "inbound_nodes": []}, {"name": "bn_data", "class_name": "BatchNormalization", "config": {"name": "bn_data", "trainable": true, "dtype": "float32", "axis": 3, "momentum": 0.99, "epsilon": 2e-05, "center": true, "scale": false, "beta_initializer": {"class_name": "Zeros", "config": {}}, "gamma_initializer": {"class_name": "Ones", "config": {}}, "moving_mean_initializer": {"class_name": "Zeros", "config": {}}, "moving_variance_initializer": {"class_name": "Ones", "config": {}}, "beta_regularizer": null, "gamma_regularizer": null, "beta_constraint": null, "gamma_constraint": null}, "inbound_nodes": [[["data", 0, 0, {}]]]}, {"name": "zero_padding2d_35", "class_name": "ZeroPadding2D", "config": {"name": "zero_padding2d_35", "trainable": true, "dtype": "float32", "padding": [[3, 3], [3, 3]], "data_format": "channels_last"}, "inbound_nodes": [[["bn_data", 0, 0, {}]]]}, {"name": "conv0", "class_name": "Conv2D", "config": {"name": "conv0", "trainable": true, "dtype": "float32", "filters": 64, "kernel_size": [7, 7], "strides": [2, 2], "padding": "valid", "data_format": "channels_last", "dilation_rate": [1, 1], "activation": "linear", "use_bias": false, "kernel_initializer": {"class_name": "VarianceScaling", "config": {"scale": 2.0, "mode": "fan_in", "distribution": "uniform", "seed": null}}, "bias_initializer": {"class_name": "Zeros", "config": {}}, "kernel_regularizer": null, "bias_regularizer": null, "activity_regularizer": null, "kernel_constraint": null, "bias_constraint": null}, "inbound_nodes": [[["zero_padding2d_35", 0, 0, {}]]]}, {"name": "bn0", "class_name": "BatchNormalization", "config": {"name": "bn0", "trainable": true, "dtype": "float32", "axis": 3, "momentum": 0.99, "epsilon": 2e-05, "center": true, "scale": true, "beta_initializer": {"class_name": "Zeros", "config": {}}, "gamma_initializer": {"class_name": "Ones", "config": {}}, "moving_mean_initializer": {"class_name": "Zeros", "config": {}}, "moving_variance_initializer": {"class_name": "Ones", "config": {}}, "beta_regularizer": null, "gamma_regularizer": null, "beta_constraint": null, "gamma_constraint": null}, "inbound_nodes": [[["conv0", 0, 0, {}]]]}, {"name": "relu0", "class_name": "Activation", "config": {"name": "relu0", "trainable": true, "dtype": "float32", "activation": "relu"}, "inbound_nodes": [[["bn0", 0, 0, {}]]]}, {"name": "zero_padding2d_36", "class_name": "ZeroPadding2D", "config": {"name": "zero_padding2d_36", "trainable": true, "dtype": "float32", "padding": [[1, 1], [1, 1]], "data_format": "channels_last"}, "inbound_nodes": [[["relu0", 0, 0, {}]]]}, {"name": "pooling0", "class_name": "MaxPooling2D", "config": {"name": "pooling0", "trainable": true, "dtype": "float32", "pool_size": [3, 3], "padding": "valid", "strides": [2, 2], "data_format": "channels_last"}, "inbound_nodes": [[["zero_padding2d_36", 0, 0, {}]]]}, {"name": "stage1_unit1_bn1", "class_name": "BatchNormalization", "config": {"name": "stage1_unit1_bn1", "trainable": true, "dtype": "float32", "axis": 3, "momentum": 0.99, "epsilon": 2e-05, "center": true, "scale": true, "beta_initializer": {"class_name": "Zeros", "config": {}}, "gamma_initializer": {"class_name": "Ones", "config": {}}, "moving_mean_initializer": {"class_name": "Zeros", "config": {}}, "moving_variance_initializer": {"class_name": "Ones", "config": {}}, "beta_regularizer": null, "gamma_regularizer": null, "beta_constraint": null, "gamma_constraint": null}, "inbound_nodes": [[["pooling0", 0, 0, {}]]]}, {"name": "stage1_unit1_relu1", "class_name": "Activation", "config": {"name": "stage1_unit1_relu1", "trainable": true, "dtype": "float32", "activation": "relu"}, "inbound_nodes": [[["stage1_unit1_bn1", 0, 0, {}]]]}, {"name": "zero_padding2d_37", "class_name": "ZeroPadding2D", "config": {"name": "zero_padding2d_37", "trainable": true, "dtype": "float32", "padding": [[1, 1], [1, 1]], "data_format": "channels_last"}, "inbound_nodes": [[["stage1_unit1_relu1", 0, 0, {}]]]}, {"name": "stage1_unit1_conv1", "class_name": "Conv2D", "config": {"name": "stage1_unit1_conv1", "trainable": true, "dtype": "float32", "filters": 64, "kernel_size": [3, 3], "strides": [1, 1], "padding": "valid", "data_format": "channels_last", "dilation_rate": [1, 1], "activation": "linear", "use_bias": false, "kernel_initializer": {"class_name": "VarianceScaling", "config": {"scale": 2.0, "mode": "fan_in", "distribution": "uniform", "seed": null}}, "bias_initializer": {"class_name": "Zeros", "config": {}}, "kernel_regularizer": null, "bias_regularizer": null, "activity_regularizer": null, "kernel_constraint": null, "bias_constraint": null}, "inbound_nodes": [[["zero_padding2d_37", 0, 0, {}]]]}, {"name": "stage1_unit1_bn2", "class_name": "BatchNormalization", "config": {"name": "stage1_unit1_bn2", "trainable": true, "dtype": "float32", "axis": 3, "momentum": 0.99, "epsilon": 2e-05, "center": true, "scale": true, "beta_initializer": {"class_name": "Zeros", "config": {}}, "gamma_initializer": {"class_name": "Ones", "config": {}}, "moving_mean_initializer": {"class_name": "Zeros", "config": {}}, "moving_variance_initializer": {"class_name": "Ones", "config": {}}, "beta_regularizer": null, "gamma_regularizer": null, "beta_constraint": null, "gamma_constraint": null}, "inbound_nodes": [[["stage1_unit1_conv1", 0, 0, {}]]]}, {"name": "stage1_unit1_relu2", "class_name": "Activation", "config": {"name": "stage1_unit1_relu2", "trainable": true, "dtype": "float32", "activation": "relu"}, "inbound_nodes": [[["stage1_unit1_bn2", 0, 0, {}]]]}, {"name": "zero_padding2d_38", "class_name": "ZeroPadding2D", "config": {"name": "zero_padding2d_38", "trainable": true, "dtype": "float32", "padding": [[1, 1], [1, 1]], "data_format": "channels_last"}, "inbound_nodes": [[["stage1_unit1_relu2", 0, 0, {}]]]}, {"name": "stage1_unit1_conv2", "class_name": "Conv2D", "config": {"name": "stage1_unit1_conv2", "trainable": true, "dtype": "float32", "filters": 64, "kernel_size": [3, 3], "strides": [1, 1], "padding": "valid", "data_format": "channels_last", "dilation_rate": [1, 1], "activation": "linear", "use_bias": false, "kernel_initializer": {"class_name": "VarianceScaling", "config": {"scale": 2.0, "mode": "fan_in", "distribution": "uniform", "seed": null}}, "bias_initializer": {"class_name": "Zeros", "config": {}}, "kernel_regularizer": null, "bias_regularizer": null, "activity_regularizer": null, "kernel_constraint": null, "bias_constraint": null}, "inbound_nodes": [[["zero_padding2d_38", 0, 0, {}]]]}, {"name": "stage1_unit1_sc", "class_name": "Conv2D", "config": {"name": "stage1_unit1_sc", "trainable": true, "dtype": "float32", "filters": 64, "kernel_size": [1, 1], "strides": [1, 1], "padding": "valid", "data_format": "channels_last", "dilation_rate": [1, 1], "activation": "linear", "use_bias": false, "kernel_initializer": {"class_name": "VarianceScaling", "config": {"scale": 2.0, "mode": "fan_in", "distribution": "uniform", "seed": null}}, "bias_initializer": {"class_name": "Zeros", "config": {}}, "kernel_regularizer": null, "bias_regularizer": null, "activity_regularizer": null, "kernel_constraint": null, "bias_constraint": null}, "inbound_nodes": [[["stage1_unit1_relu1", 0, 0, {}]]]}, {"name": "add_17", "class_name": "Add", "config": {"name": "add_17", "trainable": true, "dtype": "float32"}, "inbound_nodes": [[["stage1_unit1_conv2", 0, 0, {}], ["stage1_unit1_sc", 0, 0, {}]]]}, {"name": "stage1_unit2_bn1", "class_name": "BatchNormalization", "config": {"name": "stage1_unit2_bn1", "trainable": true, "dtype": "float32", "axis": 3, "momentum": 0.99, "epsilon": 2e-05, "center": true, "scale": true, "beta_initializer": {"class_name": "Zeros", "config": {}}, "gamma_initializer": {"class_name": "Ones", "config": {}}, "moving_mean_initializer": {"class_name": "Zeros", "config": {}}, "moving_variance_initializer": {"class_name": "Ones", "config": {}}, "beta_regularizer": null, "gamma_regularizer": null, "beta_constraint": null, "gamma_constraint": null}, "inbound_nodes": [[["add_17", 0, 0, {}]]]}, {"name": "stage1_unit2_relu1", "class_name": "Activation", "config": {"name": "stage1_unit2_relu1", "trainable": true, "dtype": "float32", "activation": "relu"}, "inbound_nodes": [[["stage1_unit2_bn1", 0, 0, {}]]]}, {"name": "zero_padding2d_39", "class_name": "ZeroPadding2D", "config": {"name": "zero_padding2d_39", "trainable": true, "dtype": "float32", "padding": [[1, 1], [1, 1]], "data_format": "channels_last"}, "inbound_nodes": [[["stage1_unit2_relu1", 0, 0, {}]]]}, {"name": "stage1_unit2_conv1", "class_name": "Conv2D", "config": {"name": "stage1_unit2_conv1", "trainable": true, "dtype": "float32", "filters": 64, "kernel_size": [3, 3], "strides": [1, 1], "padding": "valid", "data_format": "channels_last", "dilation_rate": [1, 1], "activation": "linear", "use_bias": false, "kernel_initializer": {"class_name": "VarianceScaling", "config": {"scale": 2.0, "mode": "fan_in", "distribution": "uniform", "seed": null}}, "bias_initializer": {"class_name": "Zeros", "config": {}}, "kernel_regularizer": null, "bias_regularizer": null, "activity_regularizer": null, "kernel_constraint": null, "bias_constraint": null}, "inbound_nodes": [[["zero_padding2d_39", 0, 0, {}]]]}, {"name": "stage1_unit2_bn2", "class_name": "BatchNormalization", "config": {"name": "stage1_unit2_bn2", "trainable": true, "dtype": "float32", "axis": 3, "momentum": 0.99, "epsilon": 2e-05, "center": true, "scale": true, "beta_initializer": {"class_name": "Zeros", "config": {}}, "gamma_initializer": {"class_name": "Ones", "config": {}}, "moving_mean_initializer": {"class_name": "Zeros", "config": {}}, "moving_variance_initializer": {"class_name": "Ones", "config": {}}, "beta_regularizer": null, "gamma_regularizer": null, "beta_constraint": null, "gamma_constraint": null}, "inbound_nodes": [[["stage1_unit2_conv1", 0, 0, {}]]]}, {"name": "stage1_unit2_relu2", "class_name": "Activation", "config": {"name": "stage1_unit2_relu2", "trainable": true, "dtype": "float32", "activation": "relu"}, "inbound_nodes": [[["stage1_unit2_bn2", 0, 0, {}]]]}, {"name": "zero_padding2d_40", "class_name": "ZeroPadding2D", "config": {"name": "zero_padding2d_40", "trainable": true, "dtype": "float32", "padding": [[1, 1], [1, 1]], "data_format": "channels_last"}, "inbound_nodes": [[["stage1_unit2_relu2", 0, 0, {}]]]}, {"name": "stage1_unit2_conv2", "class_name": "Conv2D", "config": {"name": "stage1_unit2_conv2", "trainable": true, "dtype": "float32", "filters": 64, "kernel_size": [3, 3], "strides": [1, 1], "padding": "valid", "data_format": "channels_last", "dilation_rate": [1, 1], "activation": "linear", "use_bias": false, "kernel_initializer": {"class_name": "VarianceScaling", "config": {"scale": 2.0, "mode": "fan_in", "distribution": "uniform", "seed": null}}, "bias_initializer": {"class_name": "Zeros", "config": {}}, "kernel_regularizer": null, "bias_regularizer": null, "activity_regularizer": null, "kernel_constraint": null, "bias_constraint": null}, "inbound_nodes": [[["zero_padding2d_40", 0, 0, {}]]]}, {"name": "add_18", "class_name": "Add", "config": {"name": "add_18", "trainable": true, "dtype": "float32"}, "inbound_nodes": [[["stage1_unit2_conv2", 0, 0, {}], ["add_17", 0, 0, {}]]]}, {"name": "stage1_unit3_bn1", "class_name": "BatchNormalization", "config": {"name": "stage1_unit3_bn1", "trainable": true, "dtype": "float32", "axis": 3, "momentum": 0.99, "epsilon": 2e-05, "center": true, "scale": true, "beta_initializer": {"class_name": "Zeros", "config": {}}, "gamma_initializer": {"class_name": "Ones", "config": {}}, "moving_mean_initializer": {"class_name": "Zeros", "config": {}}, "moving_variance_initializer": {"class_name": "Ones", "config": {}}, "beta_regularizer": null, "gamma_regularizer": null, "beta_constraint": null, "gamma_constraint": null}, "inbound_nodes": [[["add_18", 0, 0, {}]]]}, {"name": "stage1_unit3_relu1", "class_name": "Activation", "config": {"name": "stage1_unit3_relu1", "trainable": true, "dtype": "float32", "activation": "relu"}, "inbound_nodes": [[["stage1_unit3_bn1", 0, 0, {}]]]}, {"name": "zero_padding2d_41", "class_name": "ZeroPadding2D", "config": {"name": "zero_padding2d_41", "trainable": true, "dtype": "float32", "padding": [[1, 1], [1, 1]], "data_format": "channels_last"}, "inbound_nodes": [[["stage1_unit3_relu1", 0, 0, {}]]]}, {"name": "stage1_unit3_conv1", "class_name": "Conv2D", "config": {"name": "stage1_unit3_conv1", "trainable": true, "dtype": "float32", "filters": 64, "kernel_size": [3, 3], "strides": [1, 1], "padding": "valid", "data_format": "channels_last", "dilation_rate": [1, 1], "activation": "linear", "use_bias": false, "kernel_initializer": {"class_name": "VarianceScaling", "config": {"scale": 2.0, "mode": "fan_in", "distribution": "uniform", "seed": null}}, "bias_initializer": {"class_name": "Zeros", "config": {}}, "kernel_regularizer": null, "bias_regularizer": null, "activity_regularizer": null, "kernel_constraint": null, "bias_constraint": null}, "inbound_nodes": [[["zero_padding2d_41", 0, 0, {}]]]}, {"name": "stage1_unit3_bn2", "class_name": "BatchNormalization", "config": {"name": "stage1_unit3_bn2", "trainable": true, "dtype": "float32", "axis": 3, "momentum": 0.99, "epsilon": 2e-05, "center": true, "scale": true, "beta_initializer": {"class_name": "Zeros", "config": {}}, "gamma_initializer": {"class_name": "Ones", "config": {}}, "moving_mean_initializer": {"class_name": "Zeros", "config": {}}, "moving_variance_initializer": {"class_name": "Ones", "config": {}}, "beta_regularizer": null, "gamma_regularizer": null, "beta_constraint": null, "gamma_constraint": null}, "inbound_nodes": [[["stage1_unit3_conv1", 0, 0, {}]]]}, {"name": "stage1_unit3_relu2", "class_name": "Activation", "config": {"name": "stage1_unit3_relu2", "trainable": true, "dtype": "float32", "activation": "relu"}, "inbound_nodes": [[["stage1_unit3_bn2", 0, 0, {}]]]}, {"name": "zero_padding2d_42", "class_name": "ZeroPadding2D", "config": {"name": "zero_padding2d_42", "trainable": true, "dtype": "float32", "padding": [[1, 1], [1, 1]], "data_format": "channels_last"}, "inbound_nodes": [[["stage1_unit3_relu2", 0, 0, {}]]]}, {"name": "stage1_unit3_conv2", "class_name": "Conv2D", "config": {"name": "stage1_unit3_conv2", "trainable": true, "dtype": "float32", "filters": 64, "kernel_size": [3, 3], "strides": [1, 1], "padding": "valid", "data_format": "channels_last", "dilation_rate": [1, 1], "activation": "linear", "use_bias": false, "kernel_initializer": {"class_name": "VarianceScaling", "config": {"scale": 2.0, "mode": "fan_in", "distribution": "uniform", "seed": null}}, "bias_initializer": {"class_name": "Zeros", "config": {}}, "kernel_regularizer": null, "bias_regularizer": null, "activity_regularizer": null, "kernel_constraint": null, "bias_constraint": null}, "inbound_nodes": [[["zero_padding2d_42", 0, 0, {}]]]}, {"name": "add_19", "class_name": "Add", "config": {"name": "add_19", "trainable": true, "dtype": "float32"}, "inbound_nodes": [[["stage1_unit3_conv2", 0, 0, {}], ["add_18", 0, 0, {}]]]}, {"name": "stage2_unit1_bn1", "class_name": "BatchNormalization", "config": {"name": "stage2_unit1_bn1", "trainable": true, "dtype": "float32", "axis": 3, "momentum": 0.99, "epsilon": 2e-05, "center": true, "scale": true, "beta_initializer": {"class_name": "Zeros", "config": {}}, "gamma_initializer": {"class_name": "Ones", "config": {}}, "moving_mean_initializer": {"class_name": "Zeros", "config": {}}, "moving_variance_initializer": {"class_name": "Ones", "config": {}}, "beta_regularizer": null, "gamma_regularizer": null, "beta_constraint": null, "gamma_constraint": null}, "inbound_nodes": [[["add_19", 0, 0, {}]]]}, {"name": "stage2_unit1_relu1", "class_name": "Activation", "config": {"name": "stage2_unit1_relu1", "trainable": true, "dtype": "float32", "activation": "relu"}, "inbound_nodes": [[["stage2_unit1_bn1", 0, 0, {}]]]}, {"name": "zero_padding2d_43", "class_name": "ZeroPadding2D", "config": {"name": "zero_padding2d_43", "trainable": true, "dtype": "float32", "padding": [[1, 1], [1, 1]], "data_format": "channels_last"}, "inbound_nodes": [[["stage2_unit1_relu1", 0, 0, {}]]]}, {"name": "stage2_unit1_conv1", "class_name": "Conv2D", "config": {"name": "stage2_unit1_conv1", "trainable": true, "dtype": "float32", "filters": 128, "kernel_size": [3, 3], "strides": [2, 2], "padding": "valid", "data_format": "channels_last", "dilation_rate": [1, 1], "activation": "linear", "use_bias": false, "kernel_initializer": {"class_name": "VarianceScaling", "config": {"scale": 2.0, "mode": "fan_in", "distribution": "uniform", "seed": null}}, "bias_initializer": {"class_name": "Zeros", "config": {}}, "kernel_regularizer": null, "bias_regularizer": null, "activity_regularizer": null, "kernel_constraint": null, "bias_constraint": null}, "inbound_nodes": [[["zero_padding2d_43", 0, 0, {}]]]}, {"name": "stage2_unit1_bn2", "class_name": "BatchNormalization", "config": {"name": "stage2_unit1_bn2", "trainable": true, "dtype": "float32", "axis": 3, "momentum": 0.99, "epsilon": 2e-05, "center": true, "scale": true, "beta_initializer": {"class_name": "Zeros", "config": {}}, "gamma_initializer": {"class_name": "Ones", "config": {}}, "moving_mean_initializer": {"class_name": "Zeros", "config": {}}, "moving_variance_initializer": {"class_name": "Ones", "config": {}}, "beta_regularizer": null, "gamma_regularizer": null, "beta_constraint": null, "gamma_constraint": null}, "inbound_nodes": [[["stage2_unit1_conv1", 0, 0, {}]]]}, {"name": "stage2_unit1_relu2", "class_name": "Activation", "config": {"name": "stage2_unit1_relu2", "trainable": true, "dtype": "float32", "activation": "relu"}, "inbound_nodes": [[["stage2_unit1_bn2", 0, 0, {}]]]}, {"name": "zero_padding2d_44", "class_name": "ZeroPadding2D", "config": {"name": "zero_padding2d_44", "trainable": true, "dtype": "float32", "padding": [[1, 1], [1, 1]], "data_format": "channels_last"}, "inbound_nodes": [[["stage2_unit1_relu2", 0, 0, {}]]]}, {"name": "stage2_unit1_conv2", "class_name": "Conv2D", "config": {"name": "stage2_unit1_conv2", "trainable": true, "dtype": "float32", "filters": 128, "kernel_size": [3, 3], "strides": [1, 1], "padding": "valid", "data_format": "channels_last", "dilation_rate": [1, 1], "activation": "linear", "use_bias": false, "kernel_initializer": {"class_name": "VarianceScaling", "config": {"scale": 2.0, "mode": "fan_in", "distribution": "uniform", "seed": null}}, "bias_initializer": {"class_name": "Zeros", "config": {}}, "kernel_regularizer": null, "bias_regularizer": null, "activity_regularizer": null, "kernel_constraint": null, "bias_constraint": null}, "inbound_nodes": [[["zero_padding2d_44", 0, 0, {}]]]}, {"name": "stage2_unit1_sc", "class_name": "Conv2D", "config": {"name": "stage2_unit1_sc", "trainable": true, "dtype": "float32", "filters": 128, "kernel_size": [1, 1], "strides": [2, 2], "padding": "valid", "data_format": "channels_last", "dilation_rate": [1, 1], "activation": "linear", "use_bias": false, "kernel_initializer": {"class_name": "VarianceScaling", "config": {"scale": 2.0, "mode": "fan_in", "distribution": "uniform", "seed": null}}, "bias_initializer": {"class_name": "Zeros", "config": {}}, "kernel_regularizer": null, "bias_regularizer": null, "activity_regularizer": null, "kernel_constraint": null, "bias_constraint": null}, "inbound_nodes": [[["stage2_unit1_relu1", 0, 0, {}]]]}, {"name": "add_20", "class_name": "Add", "config": {"name": "add_20", "trainable": true, "dtype": "float32"}, "inbound_nodes": [[["stage2_unit1_conv2", 0, 0, {}], ["stage2_unit1_sc", 0, 0, {}]]]}, {"name": "stage2_unit2_bn1", "class_name": "BatchNormalization", "config": {"name": "stage2_unit2_bn1", "trainable": true, "dtype": "float32", "axis": 3, "momentum": 0.99, "epsilon": 2e-05, "center": true, "scale": true, "beta_initializer": {"class_name": "Zeros", "config": {}}, "gamma_initializer": {"class_name": "Ones", "config": {}}, "moving_mean_initializer": {"class_name": "Zeros", "config": {}}, "moving_variance_initializer": {"class_name": "Ones", "config": {}}, "beta_regularizer": null, "gamma_regularizer": null, "beta_constraint": null, "gamma_constraint": null}, "inbound_nodes": [[["add_20", 0, 0, {}]]]}, {"name": "stage2_unit2_relu1", "class_name": "Activation", "config": {"name": "stage2_unit2_relu1", "trainable": true, "dtype": "float32", "activation": "relu"}, "inbound_nodes": [[["stage2_unit2_bn1", 0, 0, {}]]]}, {"name": "zero_padding2d_45", "class_name": "ZeroPadding2D", "config": {"name": "zero_padding2d_45", "trainable": true, "dtype": "float32", "padding": [[1, 1], [1, 1]], "data_format": "channels_last"}, "inbound_nodes": [[["stage2_unit2_relu1", 0, 0, {}]]]}, {"name": "stage2_unit2_conv1", "class_name": "Conv2D", "config": {"name": "stage2_unit2_conv1", "trainable": true, "dtype": "float32", "filters": 128, "kernel_size": [3, 3], "strides": [1, 1], "padding": "valid", "data_format": "channels_last", "dilation_rate": [1, 1], "activation": "linear", "use_bias": false, "kernel_initializer": {"class_name": "VarianceScaling", "config": {"scale": 2.0, "mode": "fan_in", "distribution": "uniform", "seed": null}}, "bias_initializer": {"class_name": "Zeros", "config": {}}, "kernel_regularizer": null, "bias_regularizer": null, "activity_regularizer": null, "kernel_constraint": null, "bias_constraint": null}, "inbound_nodes": [[["zero_padding2d_45", 0, 0, {}]]]}, {"name": "stage2_unit2_bn2", "class_name": "BatchNormalization", "config": {"name": "stage2_unit2_bn2", "trainable": true, "dtype": "float32", "axis": 3, "momentum": 0.99, "epsilon": 2e-05, "center": true, "scale": true, "beta_initializer": {"class_name": "Zeros", "config": {}}, "gamma_initializer": {"class_name": "Ones", "config": {}}, "moving_mean_initializer": {"class_name": "Zeros", "config": {}}, "moving_variance_initializer": {"class_name": "Ones", "config": {}}, "beta_regularizer": null, "gamma_regularizer": null, "beta_constraint": null, "gamma_constraint": null}, "inbound_nodes": [[["stage2_unit2_conv1", 0, 0, {}]]]}, {"name": "stage2_unit2_relu2", "class_name": "Activation", "config": {"name": "stage2_unit2_relu2", "trainable": true, "dtype": "float32", "activation": "relu"}, "inbound_nodes": [[["stage2_unit2_bn2", 0, 0, {}]]]}, {"name": "zero_padding2d_46", "class_name": "ZeroPadding2D", "config": {"name": "zero_padding2d_46", "trainable": true, "dtype": "float32", "padding": [[1, 1], [1, 1]], "data_format": "channels_last"}, "inbound_nodes": [[["stage2_unit2_relu2", 0, 0, {}]]]}, {"name": "stage2_unit2_conv2", "class_name": "Conv2D", "config": {"name": "stage2_unit2_conv2", "trainable": true, "dtype": "float32", "filters": 128, "kernel_size": [3, 3], "strides": [1, 1], "padding": "valid", "data_format": "channels_last", "dilation_rate": [1, 1], "activation": "linear", "use_bias": false, "kernel_initializer": {"class_name": "VarianceScaling", "config": {"scale": 2.0, "mode": "fan_in", "distribution": "uniform", "seed": null}}, "bias_initializer": {"class_name": "Zeros", "config": {}}, "kernel_regularizer": null, "bias_regularizer": null, "activity_regularizer": null, "kernel_constraint": null, "bias_constraint": null}, "inbound_nodes": [[["zero_padding2d_46", 0, 0, {}]]]}, {"name": "add_21", "class_name": "Add", "config": {"name": "add_21", "trainable": true, "dtype": "float32"}, "inbound_nodes": [[["stage2_unit2_conv2", 0, 0, {}], ["add_20", 0, 0, {}]]]}, {"name": "stage2_unit3_bn1", "class_name": "BatchNormalization", "config": {"name": "stage2_unit3_bn1", "trainable": true, "dtype": "float32", "axis": 3, "momentum": 0.99, "epsilon": 2e-05, "center": true, "scale": true, "beta_initializer": {"class_name": "Zeros", "config": {}}, "gamma_initializer": {"class_name": "Ones", "config": {}}, "moving_mean_initializer": {"class_name": "Zeros", "config": {}}, "moving_variance_initializer": {"class_name": "Ones", "config": {}}, "beta_regularizer": null, "gamma_regularizer": null, "beta_constraint": null, "gamma_constraint": null}, "inbound_nodes": [[["add_21", 0, 0, {}]]]}, {"name": "stage2_unit3_relu1", "class_name": "Activation", "config": {"name": "stage2_unit3_relu1", "trainable": true, "dtype": "float32", "activation": "relu"}, "inbound_nodes": [[["stage2_unit3_bn1", 0, 0, {}]]]}, {"name": "zero_padding2d_47", "class_name": "ZeroPadding2D", "config": {"name": "zero_padding2d_47", "trainable": true, "dtype": "float32", "padding": [[1, 1], [1, 1]], "data_format": "channels_last"}, "inbound_nodes": [[["stage2_unit3_relu1", 0, 0, {}]]]}, {"name": "stage2_unit3_conv1", "class_name": "Conv2D", "config": {"name": "stage2_unit3_conv1", "trainable": true, "dtype": "float32", "filters": 128, "kernel_size": [3, 3], "strides": [1, 1], "padding": "valid", "data_format": "channels_last", "dilation_rate": [1, 1], "activation": "linear", "use_bias": false, "kernel_initializer": {"class_name": "VarianceScaling", "config": {"scale": 2.0, "mode": "fan_in", "distribution": "uniform", "seed": null}}, "bias_initializer": {"class_name": "Zeros", "config": {}}, "kernel_regularizer": null, "bias_regularizer": null, "activity_regularizer": null, "kernel_constraint": null, "bias_constraint": null}, "inbound_nodes": [[["zero_padding2d_47", 0, 0, {}]]]}, {"name": "stage2_unit3_bn2", "class_name": "BatchNormalization", "config": {"name": "stage2_unit3_bn2", "trainable": true, "dtype": "float32", "axis": 3, "momentum": 0.99, "epsilon": 2e-05, "center": true, "scale": true, "beta_initializer": {"class_name": "Zeros", "config": {}}, "gamma_initializer": {"class_name": "Ones", "config": {}}, "moving_mean_initializer": {"class_name": "Zeros", "config": {}}, "moving_variance_initializer": {"class_name": "Ones", "config": {}}, "beta_regularizer": null, "gamma_regularizer": null, "beta_constraint": null, "gamma_constraint": null}, "inbound_nodes": [[["stage2_unit3_conv1", 0, 0, {}]]]}, {"name": "stage2_unit3_relu2", "class_name": "Activation", "config": {"name": "stage2_unit3_relu2", "trainable": true, "dtype": "float32", "activation": "relu"}, "inbound_nodes": [[["stage2_unit3_bn2", 0, 0, {}]]]}, {"name": "zero_padding2d_48", "class_name": "ZeroPadding2D", "config": {"name": "zero_padding2d_48", "trainable": true, "dtype": "float32", "padding": [[1, 1], [1, 1]], "data_format": "channels_last"}, "inbound_nodes": [[["stage2_unit3_relu2", 0, 0, {}]]]}, {"name": "stage2_unit3_conv2", "class_name": "Conv2D", "config": {"name": "stage2_unit3_conv2", "trainable": true, "dtype": "float32", "filters": 128, "kernel_size": [3, 3], "strides": [1, 1], "padding": "valid", "data_format": "channels_last", "dilation_rate": [1, 1], "activation": "linear", "use_bias": false, "kernel_initializer": {"class_name": "VarianceScaling", "config": {"scale": 2.0, "mode": "fan_in", "distribution": "uniform", "seed": null}}, "bias_initializer": {"class_name": "Zeros", "config": {}}, "kernel_regularizer": null, "bias_regularizer": null, "activity_regularizer": null, "kernel_constraint": null, "bias_constraint": null}, "inbound_nodes": [[["zero_padding2d_48", 0, 0, {}]]]}, {"name": "add_22", "class_name": "Add", "config": {"name": "add_22", "trainable": true, "dtype": "float32"}, "inbound_nodes": [[["stage2_unit3_conv2", 0, 0, {}], ["add_21", 0, 0, {}]]]}, {"name": "stage2_unit4_bn1", "class_name": "BatchNormalization", "config": {"name": "stage2_unit4_bn1", "trainable": true, "dtype": "float32", "axis": 3, "momentum": 0.99, "epsilon": 2e-05, "center": true, "scale": true, "beta_initializer": {"class_name": "Zeros", "config": {}}, "gamma_initializer": {"class_name": "Ones", "config": {}}, "moving_mean_initializer": {"class_name": "Zeros", "config": {}}, "moving_variance_initializer": {"class_name": "Ones", "config": {}}, "beta_regularizer": null, "gamma_regularizer": null, "beta_constraint": null, "gamma_constraint": null}, "inbound_nodes": [[["add_22", 0, 0, {}]]]}, {"name": "stage2_unit4_relu1", "class_name": "Activation", "config": {"name": "stage2_unit4_relu1", "trainable": true, "dtype": "float32", "activation": "relu"}, "inbound_nodes": [[["stage2_unit4_bn1", 0, 0, {}]]]}, {"name": "zero_padding2d_49", "class_name": "ZeroPadding2D", "config": {"name": "zero_padding2d_49", "trainable": true, "dtype": "float32", "padding": [[1, 1], [1, 1]], "data_format": "channels_last"}, "inbound_nodes": [[["stage2_unit4_relu1", 0, 0, {}]]]}, {"name": "stage2_unit4_conv1", "class_name": "Conv2D", "config": {"name": "stage2_unit4_conv1", "trainable": true, "dtype": "float32", "filters": 128, "kernel_size": [3, 3], "strides": [1, 1], "padding": "valid", "data_format": "channels_last", "dilation_rate": [1, 1], "activation": "linear", "use_bias": false, "kernel_initializer": {"class_name": "VarianceScaling", "config": {"scale": 2.0, "mode": "fan_in", "distribution": "uniform", "seed": null}}, "bias_initializer": {"class_name": "Zeros", "config": {}}, "kernel_regularizer": null, "bias_regularizer": null, "activity_regularizer": null, "kernel_constraint": null, "bias_constraint": null}, "inbound_nodes": [[["zero_padding2d_49", 0, 0, {}]]]}, {"name": "stage2_unit4_bn2", "class_name": "BatchNormalization", "config": {"name": "stage2_unit4_bn2", "trainable": true, "dtype": "float32", "axis": 3, "momentum": 0.99, "epsilon": 2e-05, "center": true, "scale": true, "beta_initializer": {"class_name": "Zeros", "config": {}}, "gamma_initializer": {"class_name": "Ones", "config": {}}, "moving_mean_initializer": {"class_name": "Zeros", "config": {}}, "moving_variance_initializer": {"class_name": "Ones", "config": {}}, "beta_regularizer": null, "gamma_regularizer": null, "beta_constraint": null, "gamma_constraint": null}, "inbound_nodes": [[["stage2_unit4_conv1", 0, 0, {}]]]}, {"name": "stage2_unit4_relu2", "class_name": "Activation", "config": {"name": "stage2_unit4_relu2", "trainable": true, "dtype": "float32", "activation": "relu"}, "inbound_nodes": [[["stage2_unit4_bn2", 0, 0, {}]]]}, {"name": "zero_padding2d_50", "class_name": "ZeroPadding2D", "config": {"name": "zero_padding2d_50", "trainable": true, "dtype": "float32", "padding": [[1, 1], [1, 1]], "data_format": "channels_last"}, "inbound_nodes": [[["stage2_unit4_relu2", 0, 0, {}]]]}, {"name": "stage2_unit4_conv2", "class_name": "Conv2D", "config": {"name": "stage2_unit4_conv2", "trainable": true, "dtype": "float32", "filters": 128, "kernel_size": [3, 3], "strides": [1, 1], "padding": "valid", "data_format": "channels_last", "dilation_rate": [1, 1], "activation": "linear", "use_bias": false, "kernel_initializer": {"class_name": "VarianceScaling", "config": {"scale": 2.0, "mode": "fan_in", "distribution": "uniform", "seed": null}}, "bias_initializer": {"class_name": "Zeros", "config": {}}, "kernel_regularizer": null, "bias_regularizer": null, "activity_regularizer": null, "kernel_constraint": null, "bias_constraint": null}, "inbound_nodes": [[["zero_padding2d_50", 0, 0, {}]]]}, {"name": "add_23", "class_name": "Add", "config": {"name": "add_23", "trainable": true, "dtype": "float32"}, "inbound_nodes": [[["stage2_unit4_conv2", 0, 0, {}], ["add_22", 0, 0, {}]]]}, {"name": "stage3_unit1_bn1", "class_name": "BatchNormalization", "config": {"name": "stage3_unit1_bn1", "trainable": true, "dtype": "float32", "axis": 3, "momentum": 0.99, "epsilon": 2e-05, "center": true, "scale": true, "beta_initializer": {"class_name": "Zeros", "config": {}}, "gamma_initializer": {"class_name": "Ones", "config": {}}, "moving_mean_initializer": {"class_name": "Zeros", "config": {}}, "moving_variance_initializer": {"class_name": "Ones", "config": {}}, "beta_regularizer": null, "gamma_regularizer": null, "beta_constraint": null, "gamma_constraint": null}, "inbound_nodes": [[["add_23", 0, 0, {}]]]}, {"name": "stage3_unit1_relu1", "class_name": "Activation", "config": {"name": "stage3_unit1_relu1", "trainable": true, "dtype": "float32", "activation": "relu"}, "inbound_nodes": [[["stage3_unit1_bn1", 0, 0, {}]]]}, {"name": "zero_padding2d_51", "class_name": "ZeroPadding2D", "config": {"name": "zero_padding2d_51", "trainable": true, "dtype": "float32", "padding": [[1, 1], [1, 1]], "data_format": "channels_last"}, "inbound_nodes": [[["stage3_unit1_relu1", 0, 0, {}]]]}, {"name": "stage3_unit1_conv1", "class_name": "Conv2D", "config": {"name": "stage3_unit1_conv1", "trainable": true, "dtype": "float32", "filters": 256, "kernel_size": [3, 3], "strides": [2, 2], "padding": "valid", "data_format": "channels_last", "dilation_rate": [1, 1], "activation": "linear", "use_bias": false, "kernel_initializer": {"class_name": "VarianceScaling", "config": {"scale": 2.0, "mode": "fan_in", "distribution": "uniform", "seed": null}}, "bias_initializer": {"class_name": "Zeros", "config": {}}, "kernel_regularizer": null, "bias_regularizer": null, "activity_regularizer": null, "kernel_constraint": null, "bias_constraint": null}, "inbound_nodes": [[["zero_padding2d_51", 0, 0, {}]]]}, {"name": "stage3_unit1_bn2", "class_name": "BatchNormalization", "config": {"name": "stage3_unit1_bn2", "trainable": true, "dtype": "float32", "axis": 3, "momentum": 0.99, "epsilon": 2e-05, "center": true, "scale": true, "beta_initializer": {"class_name": "Zeros", "config": {}}, "gamma_initializer": {"class_name": "Ones", "config": {}}, "moving_mean_initializer": {"class_name": "Zeros", "config": {}}, "moving_variance_initializer": {"class_name": "Ones", "config": {}}, "beta_regularizer": null, "gamma_regularizer": null, "beta_constraint": null, "gamma_constraint": null}, "inbound_nodes": [[["stage3_unit1_conv1", 0, 0, {}]]]}, {"name": "stage3_unit1_relu2", "class_name": "Activation", "config": {"name": "stage3_unit1_relu2", "trainable": true, "dtype": "float32", "activation": "relu"}, "inbound_nodes": [[["stage3_unit1_bn2", 0, 0, {}]]]}, {"name": "zero_padding2d_52", "class_name": "ZeroPadding2D", "config": {"name": "zero_padding2d_52", "trainable": true, "dtype": "float32", "padding": [[1, 1], [1, 1]], "data_format": "channels_last"}, "inbound_nodes": [[["stage3_unit1_relu2", 0, 0, {}]]]}, {"name": "stage3_unit1_conv2", "class_name": "Conv2D", "config": {"name": "stage3_unit1_conv2", "trainable": true, "dtype": "float32", "filters": 256, "kernel_size": [3, 3], "strides": [1, 1], "padding": "valid", "data_format": "channels_last", "dilation_rate": [1, 1], "activation": "linear", "use_bias": false, "kernel_initializer": {"class_name": "VarianceScaling", "config": {"scale": 2.0, "mode": "fan_in", "distribution": "uniform", "seed": null}}, "bias_initializer": {"class_name": "Zeros", "config": {}}, "kernel_regularizer": null, "bias_regularizer": null, "activity_regularizer": null, "kernel_constraint": null, "bias_constraint": null}, "inbound_nodes": [[["zero_padding2d_52", 0, 0, {}]]]}, {"name": "stage3_unit1_sc", "class_name": "Conv2D", "config": {"name": "stage3_unit1_sc", "trainable": true, "dtype": "float32", "filters": 256, "kernel_size": [1, 1], "strides": [2, 2], "padding": "valid", "data_format": "channels_last", "dilation_rate": [1, 1], "activation": "linear", "use_bias": false, "kernel_initializer": {"class_name": "VarianceScaling", "config": {"scale": 2.0, "mode": "fan_in", "distribution": "uniform", "seed": null}}, "bias_initializer": {"class_name": "Zeros", "config": {}}, "kernel_regularizer": null, "bias_regularizer": null, "activity_regularizer": null, "kernel_constraint": null, "bias_constraint": null}, "inbound_nodes": [[["stage3_unit1_relu1", 0, 0, {}]]]}, {"name": "add_24", "class_name": "Add", "config": {"name": "add_24", "trainable": true, "dtype": "float32"}, "inbound_nodes": [[["stage3_unit1_conv2", 0, 0, {}], ["stage3_unit1_sc", 0, 0, {}]]]}, {"name": "stage3_unit2_bn1", "class_name": "BatchNormalization", "config": {"name": "stage3_unit2_bn1", "trainable": true, "dtype": "float32", "axis": 3, "momentum": 0.99, "epsilon": 2e-05, "center": true, "scale": true, "beta_initializer": {"class_name": "Zeros", "config": {}}, "gamma_initializer": {"class_name": "Ones", "config": {}}, "moving_mean_initializer": {"class_name": "Zeros", "config": {}}, "moving_variance_initializer": {"class_name": "Ones", "config": {}}, "beta_regularizer": null, "gamma_regularizer": null, "beta_constraint": null, "gamma_constraint": null}, "inbound_nodes": [[["add_24", 0, 0, {}]]]}, {"name": "stage3_unit2_relu1", "class_name": "Activation", "config": {"name": "stage3_unit2_relu1", "trainable": true, "dtype": "float32", "activation": "relu"}, "inbound_nodes": [[["stage3_unit2_bn1", 0, 0, {}]]]}, {"name": "zero_padding2d_53", "class_name": "ZeroPadding2D", "config": {"name": "zero_padding2d_53", "trainable": true, "dtype": "float32", "padding": [[1, 1], [1, 1]], "data_format": "channels_last"}, "inbound_nodes": [[["stage3_unit2_relu1", 0, 0, {}]]]}, {"name": "stage3_unit2_conv1", "class_name": "Conv2D", "config": {"name": "stage3_unit2_conv1", "trainable": true, "dtype": "float32", "filters": 256, "kernel_size": [3, 3], "strides": [1, 1], "padding": "valid", "data_format": "channels_last", "dilation_rate": [1, 1], "activation": "linear", "use_bias": false, "kernel_initializer": {"class_name": "VarianceScaling", "config": {"scale": 2.0, "mode": "fan_in", "distribution": "uniform", "seed": null}}, "bias_initializer": {"class_name": "Zeros", "config": {}}, "kernel_regularizer": null, "bias_regularizer": null, "activity_regularizer": null, "kernel_constraint": null, "bias_constraint": null}, "inbound_nodes": [[["zero_padding2d_53", 0, 0, {}]]]}, {"name": "stage3_unit2_bn2", "class_name": "BatchNormalization", "config": {"name": "stage3_unit2_bn2", "trainable": true, "dtype": "float32", "axis": 3, "momentum": 0.99, "epsilon": 2e-05, "center": true, "scale": true, "beta_initializer": {"class_name": "Zeros", "config": {}}, "gamma_initializer": {"class_name": "Ones", "config": {}}, "moving_mean_initializer": {"class_name": "Zeros", "config": {}}, "moving_variance_initializer": {"class_name": "Ones", "config": {}}, "beta_regularizer": null, "gamma_regularizer": null, "beta_constraint": null, "gamma_constraint": null}, "inbound_nodes": [[["stage3_unit2_conv1", 0, 0, {}]]]}, {"name": "stage3_unit2_relu2", "class_name": "Activation", "config": {"name": "stage3_unit2_relu2", "trainable": true, "dtype": "float32", "activation": "relu"}, "inbound_nodes": [[["stage3_unit2_bn2", 0, 0, {}]]]}, {"name": "zero_padding2d_54", "class_name": "ZeroPadding2D", "config": {"name": "zero_padding2d_54", "trainable": true, "dtype": "float32", "padding": [[1, 1], [1, 1]], "data_format": "channels_last"}, "inbound_nodes": [[["stage3_unit2_relu2", 0, 0, {}]]]}, {"name": "stage3_unit2_conv2", "class_name": "Conv2D", "config": {"name": "stage3_unit2_conv2", "trainable": true, "dtype": "float32", "filters": 256, "kernel_size": [3, 3], "strides": [1, 1], "padding": "valid", "data_format": "channels_last", "dilation_rate": [1, 1], "activation": "linear", "use_bias": false, "kernel_initializer": {"class_name": "VarianceScaling", "config": {"scale": 2.0, "mode": "fan_in", "distribution": "uniform", "seed": null}}, "bias_initializer": {"class_name": "Zeros", "config": {}}, "kernel_regularizer": null, "bias_regularizer": null, "activity_regularizer": null, "kernel_constraint": null, "bias_constraint": null}, "inbound_nodes": [[["zero_padding2d_54", 0, 0, {}]]]}, {"name": "add_25", "class_name": "Add", "config": {"name": "add_25", "trainable": true, "dtype": "float32"}, "inbound_nodes": [[["stage3_unit2_conv2", 0, 0, {}], ["add_24", 0, 0, {}]]]}, {"name": "stage3_unit3_bn1", "class_name": "BatchNormalization", "config": {"name": "stage3_unit3_bn1", "trainable": true, "dtype": "float32", "axis": 3, "momentum": 0.99, "epsilon": 2e-05, "center": true, "scale": true, "beta_initializer": {"class_name": "Zeros", "config": {}}, "gamma_initializer": {"class_name": "Ones", "config": {}}, "moving_mean_initializer": {"class_name": "Zeros", "config": {}}, "moving_variance_initializer": {"class_name": "Ones", "config": {}}, "beta_regularizer": null, "gamma_regularizer": null, "beta_constraint": null, "gamma_constraint": null}, "inbound_nodes": [[["add_25", 0, 0, {}]]]}, {"name": "stage3_unit3_relu1", "class_name": "Activation", "config": {"name": "stage3_unit3_relu1", "trainable": true, "dtype": "float32", "activation": "relu"}, "inbound_nodes": [[["stage3_unit3_bn1", 0, 0, {}]]]}, {"name": "zero_padding2d_55", "class_name": "ZeroPadding2D", "config": {"name": "zero_padding2d_55", "trainable": true, "dtype": "float32", "padding": [[1, 1], [1, 1]], "data_format": "channels_last"}, "inbound_nodes": [[["stage3_unit3_relu1", 0, 0, {}]]]}, {"name": "stage3_unit3_conv1", "class_name": "Conv2D", "config": {"name": "stage3_unit3_conv1", "trainable": true, "dtype": "float32", "filters": 256, "kernel_size": [3, 3], "strides": [1, 1], "padding": "valid", "data_format": "channels_last", "dilation_rate": [1, 1], "activation": "linear", "use_bias": false, "kernel_initializer": {"class_name": "VarianceScaling", "config": {"scale": 2.0, "mode": "fan_in", "distribution": "uniform", "seed": null}}, "bias_initializer": {"class_name": "Zeros", "config": {}}, "kernel_regularizer": null, "bias_regularizer": null, "activity_regularizer": null, "kernel_constraint": null, "bias_constraint": null}, "inbound_nodes": [[["zero_padding2d_55", 0, 0, {}]]]}, {"name": "stage3_unit3_bn2", "class_name": "BatchNormalization", "config": {"name": "stage3_unit3_bn2", "trainable": true, "dtype": "float32", "axis": 3, "momentum": 0.99, "epsilon": 2e-05, "center": true, "scale": true, "beta_initializer": {"class_name": "Zeros", "config": {}}, "gamma_initializer": {"class_name": "Ones", "config": {}}, "moving_mean_initializer": {"class_name": "Zeros", "config": {}}, "moving_variance_initializer": {"class_name": "Ones", "config": {}}, "beta_regularizer": null, "gamma_regularizer": null, "beta_constraint": null, "gamma_constraint": null}, "inbound_nodes": [[["stage3_unit3_conv1", 0, 0, {}]]]}, {"name": "stage3_unit3_relu2", "class_name": "Activation", "config": {"name": "stage3_unit3_relu2", "trainable": true, "dtype": "float32", "activation": "relu"}, "inbound_nodes": [[["stage3_unit3_bn2", 0, 0, {}]]]}, {"name": "zero_padding2d_56", "class_name": "ZeroPadding2D", "config": {"name": "zero_padding2d_56", "trainable": true, "dtype": "float32", "padding": [[1, 1], [1, 1]], "data_format": "channels_last"}, "inbound_nodes": [[["stage3_unit3_relu2", 0, 0, {}]]]}, {"name": "stage3_unit3_conv2", "class_name": "Conv2D", "config": {"name": "stage3_unit3_conv2", "trainable": true, "dtype": "float32", "filters": 256, "kernel_size": [3, 3], "strides": [1, 1], "padding": "valid", "data_format": "channels_last", "dilation_rate": [1, 1], "activation": "linear", "use_bias": false, "kernel_initializer": {"class_name": "VarianceScaling", "config": {"scale": 2.0, "mode": "fan_in", "distribution": "uniform", "seed": null}}, "bias_initializer": {"class_name": "Zeros", "config": {}}, "kernel_regularizer": null, "bias_regularizer": null, "activity_regularizer": null, "kernel_constraint": null, "bias_constraint": null}, "inbound_nodes": [[["zero_padding2d_56", 0, 0, {}]]]}, {"name": "add_26", "class_name": "Add", "config": {"name": "add_26", "trainable": true, "dtype": "float32"}, "inbound_nodes": [[["stage3_unit3_conv2", 0, 0, {}], ["add_25", 0, 0, {}]]]}, {"name": "stage3_unit4_bn1", "class_name": "BatchNormalization", "config": {"name": "stage3_unit4_bn1", "trainable": true, "dtype": "float32", "axis": 3, "momentum": 0.99, "epsilon": 2e-05, "center": true, "scale": true, "beta_initializer": {"class_name": "Zeros", "config": {}}, "gamma_initializer": {"class_name": "Ones", "config": {}}, "moving_mean_initializer": {"class_name": "Zeros", "config": {}}, "moving_variance_initializer": {"class_name": "Ones", "config": {}}, "beta_regularizer": null, "gamma_regularizer": null, "beta_constraint": null, "gamma_constraint": null}, "inbound_nodes": [[["add_26", 0, 0, {}]]]}, {"name": "stage3_unit4_relu1", "class_name": "Activation", "config": {"name": "stage3_unit4_relu1", "trainable": true, "dtype": "float32", "activation": "relu"}, "inbound_nodes": [[["stage3_unit4_bn1", 0, 0, {}]]]}, {"name": "zero_padding2d_57", "class_name": "ZeroPadding2D", "config": {"name": "zero_padding2d_57", "trainable": true, "dtype": "float32", "padding": [[1, 1], [1, 1]], "data_format": "channels_last"}, "inbound_nodes": [[["stage3_unit4_relu1", 0, 0, {}]]]}, {"name": "stage3_unit4_conv1", "class_name": "Conv2D", "config": {"name": "stage3_unit4_conv1", "trainable": true, "dtype": "float32", "filters": 256, "kernel_size": [3, 3], "strides": [1, 1], "padding": "valid", "data_format": "channels_last", "dilation_rate": [1, 1], "activation": "linear", "use_bias": false, "kernel_initializer": {"class_name": "VarianceScaling", "config": {"scale": 2.0, "mode": "fan_in", "distribution": "uniform", "seed": null}}, "bias_initializer": {"class_name": "Zeros", "config": {}}, "kernel_regularizer": null, "bias_regularizer": null, "activity_regularizer": null, "kernel_constraint": null, "bias_constraint": null}, "inbound_nodes": [[["zero_padding2d_57", 0, 0, {}]]]}, {"name": "stage3_unit4_bn2", "class_name": "BatchNormalization", "config": {"name": "stage3_unit4_bn2", "trainable": true, "dtype": "float32", "axis": 3, "momentum": 0.99, "epsilon": 2e-05, "center": true, "scale": true, "beta_initializer": {"class_name": "Zeros", "config": {}}, "gamma_initializer": {"class_name": "Ones", "config": {}}, "moving_mean_initializer": {"class_name": "Zeros", "config": {}}, "moving_variance_initializer": {"class_name": "Ones", "config": {}}, "beta_regularizer": null, "gamma_regularizer": null, "beta_constraint": null, "gamma_constraint": null}, "inbound_nodes": [[["stage3_unit4_conv1", 0, 0, {}]]]}, {"name": "stage3_unit4_relu2", "class_name": "Activation", "config": {"name": "stage3_unit4_relu2", "trainable": true, "dtype": "float32", "activation": "relu"}, "inbound_nodes": [[["stage3_unit4_bn2", 0, 0, {}]]]}, {"name": "zero_padding2d_58", "class_name": "ZeroPadding2D", "config": {"name": "zero_padding2d_58", "trainable": true, "dtype": "float32", "padding": [[1, 1], [1, 1]], "data_format": "channels_last"}, "inbound_nodes": [[["stage3_unit4_relu2", 0, 0, {}]]]}, {"name": "stage3_unit4_conv2", "class_name": "Conv2D", "config": {"name": "stage3_unit4_conv2", "trainable": true, "dtype": "float32", "filters": 256, "kernel_size": [3, 3], "strides": [1, 1], "padding": "valid", "data_format": "channels_last", "dilation_rate": [1, 1], "activation": "linear", "use_bias": false, "kernel_initializer": {"class_name": "VarianceScaling", "config": {"scale": 2.0, "mode": "fan_in", "distribution": "uniform", "seed": null}}, "bias_initializer": {"class_name": "Zeros", "config": {}}, "kernel_regularizer": null, "bias_regularizer": null, "activity_regularizer": null, "kernel_constraint": null, "bias_constraint": null}, "inbound_nodes": [[["zero_padding2d_58", 0, 0, {}]]]}, {"name": "add_27", "class_name": "Add", "config": {"name": "add_27", "trainable": true, "dtype": "float32"}, "inbound_nodes": [[["stage3_unit4_conv2", 0, 0, {}], ["add_26", 0, 0, {}]]]}, {"name": "stage3_unit5_bn1", "class_name": "BatchNormalization", "config": {"name": "stage3_unit5_bn1", "trainable": true, "dtype": "float32", "axis": 3, "momentum": 0.99, "epsilon": 2e-05, "center": true, "scale": true, "beta_initializer": {"class_name": "Zeros", "config": {}}, "gamma_initializer": {"class_name": "Ones", "config": {}}, "moving_mean_initializer": {"class_name": "Zeros", "config": {}}, "moving_variance_initializer": {"class_name": "Ones", "config": {}}, "beta_regularizer": null, "gamma_regularizer": null, "beta_constraint": null, "gamma_constraint": null}, "inbound_nodes": [[["add_27", 0, 0, {}]]]}, {"name": "stage3_unit5_relu1", "class_name": "Activation", "config": {"name": "stage3_unit5_relu1", "trainable": true, "dtype": "float32", "activation": "relu"}, "inbound_nodes": [[["stage3_unit5_bn1", 0, 0, {}]]]}, {"name": "zero_padding2d_59", "class_name": "ZeroPadding2D", "config": {"name": "zero_padding2d_59", "trainable": true, "dtype": "float32", "padding": [[1, 1], [1, 1]], "data_format": "channels_last"}, "inbound_nodes": [[["stage3_unit5_relu1", 0, 0, {}]]]}, {"name": "stage3_unit5_conv1", "class_name": "Conv2D", "config": {"name": "stage3_unit5_conv1", "trainable": true, "dtype": "float32", "filters": 256, "kernel_size": [3, 3], "strides": [1, 1], "padding": "valid", "data_format": "channels_last", "dilation_rate": [1, 1], "activation": "linear", "use_bias": false, "kernel_initializer": {"class_name": "VarianceScaling", "config": {"scale": 2.0, "mode": "fan_in", "distribution": "uniform", "seed": null}}, "bias_initializer": {"class_name": "Zeros", "config": {}}, "kernel_regularizer": null, "bias_regularizer": null, "activity_regularizer": null, "kernel_constraint": null, "bias_constraint": null}, "inbound_nodes": [[["zero_padding2d_59", 0, 0, {}]]]}, {"name": "stage3_unit5_bn2", "class_name": "BatchNormalization", "config": {"name": "stage3_unit5_bn2", "trainable": true, "dtype": "float32", "axis": 3, "momentum": 0.99, "epsilon": 2e-05, "center": true, "scale": true, "beta_initializer": {"class_name": "Zeros", "config": {}}, "gamma_initializer": {"class_name": "Ones", "config": {}}, "moving_mean_initializer": {"class_name": "Zeros", "config": {}}, "moving_variance_initializer": {"class_name": "Ones", "config": {}}, "beta_regularizer": null, "gamma_regularizer": null, "beta_constraint": null, "gamma_constraint": null}, "inbound_nodes": [[["stage3_unit5_conv1", 0, 0, {}]]]}, {"name": "stage3_unit5_relu2", "class_name": "Activation", "config": {"name": "stage3_unit5_relu2", "trainable": true, "dtype": "float32", "activation": "relu"}, "inbound_nodes": [[["stage3_unit5_bn2", 0, 0, {}]]]}, {"name": "zero_padding2d_60", "class_name": "ZeroPadding2D", "config": {"name": "zero_padding2d_60", "trainable": true, "dtype": "float32", "padding": [[1, 1], [1, 1]], "data_format": "channels_last"}, "inbound_nodes": [[["stage3_unit5_relu2", 0, 0, {}]]]}, {"name": "stage3_unit5_conv2", "class_name": "Conv2D", "config": {"name": "stage3_unit5_conv2", "trainable": true, "dtype": "float32", "filters": 256, "kernel_size": [3, 3], "strides": [1, 1], "padding": "valid", "data_format": "channels_last", "dilation_rate": [1, 1], "activation": "linear", "use_bias": false, "kernel_initializer": {"class_name": "VarianceScaling", "config": {"scale": 2.0, "mode": "fan_in", "distribution": "uniform", "seed": null}}, "bias_initializer": {"class_name": "Zeros", "config": {}}, "kernel_regularizer": null, "bias_regularizer": null, "activity_regularizer": null, "kernel_constraint": null, "bias_constraint": null}, "inbound_nodes": [[["zero_padding2d_60", 0, 0, {}]]]}, {"name": "add_28", "class_name": "Add", "config": {"name": "add_28", "trainable": true, "dtype": "float32"}, "inbound_nodes": [[["stage3_unit5_conv2", 0, 0, {}], ["add_27", 0, 0, {}]]]}, {"name": "stage3_unit6_bn1", "class_name": "BatchNormalization", "config": {"name": "stage3_unit6_bn1", "trainable": true, "dtype": "float32", "axis": 3, "momentum": 0.99, "epsilon": 2e-05, "center": true, "scale": true, "beta_initializer": {"class_name": "Zeros", "config": {}}, "gamma_initializer": {"class_name": "Ones", "config": {}}, "moving_mean_initializer": {"class_name": "Zeros", "config": {}}, "moving_variance_initializer": {"class_name": "Ones", "config": {}}, "beta_regularizer": null, "gamma_regularizer": null, "beta_constraint": null, "gamma_constraint": null}, "inbound_nodes": [[["add_28", 0, 0, {}]]]}, {"name": "stage3_unit6_relu1", "class_name": "Activation", "config": {"name": "stage3_unit6_relu1", "trainable": true, "dtype": "float32", "activation": "relu"}, "inbound_nodes": [[["stage3_unit6_bn1", 0, 0, {}]]]}, {"name": "zero_padding2d_61", "class_name": "ZeroPadding2D", "config": {"name": "zero_padding2d_61", "trainable": true, "dtype": "float32", "padding": [[1, 1], [1, 1]], "data_format": "channels_last"}, "inbound_nodes": [[["stage3_unit6_relu1", 0, 0, {}]]]}, {"name": "stage3_unit6_conv1", "class_name": "Conv2D", "config": {"name": "stage3_unit6_conv1", "trainable": true, "dtype": "float32", "filters": 256, "kernel_size": [3, 3], "strides": [1, 1], "padding": "valid", "data_format": "channels_last", "dilation_rate": [1, 1], "activation": "linear", "use_bias": false, "kernel_initializer": {"class_name": "VarianceScaling", "config": {"scale": 2.0, "mode": "fan_in", "distribution": "uniform", "seed": null}}, "bias_initializer": {"class_name": "Zeros", "config": {}}, "kernel_regularizer": null, "bias_regularizer": null, "activity_regularizer": null, "kernel_constraint": null, "bias_constraint": null}, "inbound_nodes": [[["zero_padding2d_61", 0, 0, {}]]]}, {"name": "stage3_unit6_bn2", "class_name": "BatchNormalization", "config": {"name": "stage3_unit6_bn2", "trainable": true, "dtype": "float32", "axis": 3, "momentum": 0.99, "epsilon": 2e-05, "center": true, "scale": true, "beta_initializer": {"class_name": "Zeros", "config": {}}, "gamma_initializer": {"class_name": "Ones", "config": {}}, "moving_mean_initializer": {"class_name": "Zeros", "config": {}}, "moving_variance_initializer": {"class_name": "Ones", "config": {}}, "beta_regularizer": null, "gamma_regularizer": null, "beta_constraint": null, "gamma_constraint": null}, "inbound_nodes": [[["stage3_unit6_conv1", 0, 0, {}]]]}, {"name": "stage3_unit6_relu2", "class_name": "Activation", "config": {"name": "stage3_unit6_relu2", "trainable": true, "dtype": "float32", "activation": "relu"}, "inbound_nodes": [[["stage3_unit6_bn2", 0, 0, {}]]]}, {"name": "zero_padding2d_62", "class_name": "ZeroPadding2D", "config": {"name": "zero_padding2d_62", "trainable": true, "dtype": "float32", "padding": [[1, 1], [1, 1]], "data_format": "channels_last"}, "inbound_nodes": [[["stage3_unit6_relu2", 0, 0, {}]]]}, {"name": "stage3_unit6_conv2", "class_name": "Conv2D", "config": {"name": "stage3_unit6_conv2", "trainable": true, "dtype": "float32", "filters": 256, "kernel_size": [3, 3], "strides": [1, 1], "padding": "valid", "data_format": "channels_last", "dilation_rate": [1, 1], "activation": "linear", "use_bias": false, "kernel_initializer": {"class_name": "VarianceScaling", "config": {"scale": 2.0, "mode": "fan_in", "distribution": "uniform", "seed": null}}, "bias_initializer": {"class_name": "Zeros", "config": {}}, "kernel_regularizer": null, "bias_regularizer": null, "activity_regularizer": null, "kernel_constraint": null, "bias_constraint": null}, "inbound_nodes": [[["zero_padding2d_62", 0, 0, {}]]]}, {"name": "add_29", "class_name": "Add", "config": {"name": "add_29", "trainable": true, "dtype": "float32"}, "inbound_nodes": [[["stage3_unit6_conv2", 0, 0, {}], ["add_28", 0, 0, {}]]]}, {"name": "stage4_unit1_bn1", "class_name": "BatchNormalization", "config": {"name": "stage4_unit1_bn1", "trainable": true, "dtype": "float32", "axis": 3, "momentum": 0.99, "epsilon": 2e-05, "center": true, "scale": true, "beta_initializer": {"class_name": "Zeros", "config": {}}, "gamma_initializer": {"class_name": "Ones", "config": {}}, "moving_mean_initializer": {"class_name": "Zeros", "config": {}}, "moving_variance_initializer": {"class_name": "Ones", "config": {}}, "beta_regularizer": null, "gamma_regularizer": null, "beta_constraint": null, "gamma_constraint": null}, "inbound_nodes": [[["add_29", 0, 0, {}]]]}, {"name": "stage4_unit1_relu1", "class_name": "Activation", "config": {"name": "stage4_unit1_relu1", "trainable": true, "dtype": "float32", "activation": "relu"}, "inbound_nodes": [[["stage4_unit1_bn1", 0, 0, {}]]]}, {"name": "zero_padding2d_63", "class_name": "ZeroPadding2D", "config": {"name": "zero_padding2d_63", "trainable": true, "dtype": "float32", "padding": [[1, 1], [1, 1]], "data_format": "channels_last"}, "inbound_nodes": [[["stage4_unit1_relu1", 0, 0, {}]]]}, {"name": "stage4_unit1_conv1", "class_name": "Conv2D", "config": {"name": "stage4_unit1_conv1", "trainable": true, "dtype": "float32", "filters": 512, "kernel_size": [3, 3], "strides": [2, 2], "padding": "valid", "data_format": "channels_last", "dilation_rate": [1, 1], "activation": "linear", "use_bias": false, "kernel_initializer": {"class_name": "VarianceScaling", "config": {"scale": 2.0, "mode": "fan_in", "distribution": "uniform", "seed": null}}, "bias_initializer": {"class_name": "Zeros", "config": {}}, "kernel_regularizer": null, "bias_regularizer": null, "activity_regularizer": null, "kernel_constraint": null, "bias_constraint": null}, "inbound_nodes": [[["zero_padding2d_63", 0, 0, {}]]]}, {"name": "stage4_unit1_bn2", "class_name": "BatchNormalization", "config": {"name": "stage4_unit1_bn2", "trainable": true, "dtype": "float32", "axis": 3, "momentum": 0.99, "epsilon": 2e-05, "center": true, "scale": true, "beta_initializer": {"class_name": "Zeros", "config": {}}, "gamma_initializer": {"class_name": "Ones", "config": {}}, "moving_mean_initializer": {"class_name": "Zeros", "config": {}}, "moving_variance_initializer": {"class_name": "Ones", "config": {}}, "beta_regularizer": null, "gamma_regularizer": null, "beta_constraint": null, "gamma_constraint": null}, "inbound_nodes": [[["stage4_unit1_conv1", 0, 0, {}]]]}, {"name": "stage4_unit1_relu2", "class_name": "Activation", "config": {"name": "stage4_unit1_relu2", "trainable": true, "dtype": "float32", "activation": "relu"}, "inbound_nodes": [[["stage4_unit1_bn2", 0, 0, {}]]]}, {"name": "zero_padding2d_64", "class_name": "ZeroPadding2D", "config": {"name": "zero_padding2d_64", "trainable": true, "dtype": "float32", "padding": [[1, 1], [1, 1]], "data_format": "channels_last"}, "inbound_nodes": [[["stage4_unit1_relu2", 0, 0, {}]]]}, {"name": "stage4_unit1_conv2", "class_name": "Conv2D", "config": {"name": "stage4_unit1_conv2", "trainable": true, "dtype": "float32", "filters": 512, "kernel_size": [3, 3], "strides": [1, 1], "padding": "valid", "data_format": "channels_last", "dilation_rate": [1, 1], "activation": "linear", "use_bias": false, "kernel_initializer": {"class_name": "VarianceScaling", "config": {"scale": 2.0, "mode": "fan_in", "distribution": "uniform", "seed": null}}, "bias_initializer": {"class_name": "Zeros", "config": {}}, "kernel_regularizer": null, "bias_regularizer": null, "activity_regularizer": null, "kernel_constraint": null, "bias_constraint": null}, "inbound_nodes": [[["zero_padding2d_64", 0, 0, {}]]]}, {"name": "stage4_unit1_sc", "class_name": "Conv2D", "config": {"name": "stage4_unit1_sc", "trainable": true, "dtype": "float32", "filters": 512, "kernel_size": [1, 1], "strides": [2, 2], "padding": "valid", "data_format": "channels_last", "dilation_rate": [1, 1], "activation": "linear", "use_bias": false, "kernel_initializer": {"class_name": "VarianceScaling", "config": {"scale": 2.0, "mode": "fan_in", "distribution": "uniform", "seed": null}}, "bias_initializer": {"class_name": "Zeros", "config": {}}, "kernel_regularizer": null, "bias_regularizer": null, "activity_regularizer": null, "kernel_constraint": null, "bias_constraint": null}, "inbound_nodes": [[["stage4_unit1_relu1", 0, 0, {}]]]}, {"name": "add_30", "class_name": "Add", "config": {"name": "add_30", "trainable": true, "dtype": "float32"}, "inbound_nodes": [[["stage4_unit1_conv2", 0, 0, {}], ["stage4_unit1_sc", 0, 0, {}]]]}, {"name": "stage4_unit2_bn1", "class_name": "BatchNormalization", "config": {"name": "stage4_unit2_bn1", "trainable": true, "dtype": "float32", "axis": 3, "momentum": 0.99, "epsilon": 2e-05, "center": true, "scale": true, "beta_initializer": {"class_name": "Zeros", "config": {}}, "gamma_initializer": {"class_name": "Ones", "config": {}}, "moving_mean_initializer": {"class_name": "Zeros", "config": {}}, "moving_variance_initializer": {"class_name": "Ones", "config": {}}, "beta_regularizer": null, "gamma_regularizer": null, "beta_constraint": null, "gamma_constraint": null}, "inbound_nodes": [[["add_30", 0, 0, {}]]]}, {"name": "stage4_unit2_relu1", "class_name": "Activation", "config": {"name": "stage4_unit2_relu1", "trainable": true, "dtype": "float32", "activation": "relu"}, "inbound_nodes": [[["stage4_unit2_bn1", 0, 0, {}]]]}, {"name": "zero_padding2d_65", "class_name": "ZeroPadding2D", "config": {"name": "zero_padding2d_65", "trainable": true, "dtype": "float32", "padding": [[1, 1], [1, 1]], "data_format": "channels_last"}, "inbound_nodes": [[["stage4_unit2_relu1", 0, 0, {}]]]}, {"name": "stage4_unit2_conv1", "class_name": "Conv2D", "config": {"name": "stage4_unit2_conv1", "trainable": true, "dtype": "float32", "filters": 512, "kernel_size": [3, 3], "strides": [1, 1], "padding": "valid", "data_format": "channels_last", "dilation_rate": [1, 1], "activation": "linear", "use_bias": false, "kernel_initializer": {"class_name": "VarianceScaling", "config": {"scale": 2.0, "mode": "fan_in", "distribution": "uniform", "seed": null}}, "bias_initializer": {"class_name": "Zeros", "config": {}}, "kernel_regularizer": null, "bias_regularizer": null, "activity_regularizer": null, "kernel_constraint": null, "bias_constraint": null}, "inbound_nodes": [[["zero_padding2d_65", 0, 0, {}]]]}, {"name": "stage4_unit2_bn2", "class_name": "BatchNormalization", "config": {"name": "stage4_unit2_bn2", "trainable": true, "dtype": "float32", "axis": 3, "momentum": 0.99, "epsilon": 2e-05, "center": true, "scale": true, "beta_initializer": {"class_name": "Zeros", "config": {}}, "gamma_initializer": {"class_name": "Ones", "config": {}}, "moving_mean_initializer": {"class_name": "Zeros", "config": {}}, "moving_variance_initializer": {"class_name": "Ones", "config": {}}, "beta_regularizer": null, "gamma_regularizer": null, "beta_constraint": null, "gamma_constraint": null}, "inbound_nodes": [[["stage4_unit2_conv1", 0, 0, {}]]]}, {"name": "stage4_unit2_relu2", "class_name": "Activation", "config": {"name": "stage4_unit2_relu2", "trainable": true, "dtype": "float32", "activation": "relu"}, "inbound_nodes": [[["stage4_unit2_bn2", 0, 0, {}]]]}, {"name": "zero_padding2d_66", "class_name": "ZeroPadding2D", "config": {"name": "zero_padding2d_66", "trainable": true, "dtype": "float32", "padding": [[1, 1], [1, 1]], "data_format": "channels_last"}, "inbound_nodes": [[["stage4_unit2_relu2", 0, 0, {}]]]}, {"name": "stage4_unit2_conv2", "class_name": "Conv2D", "config": {"name": "stage4_unit2_conv2", "trainable": true, "dtype": "float32", "filters": 512, "kernel_size": [3, 3], "strides": [1, 1], "padding": "valid", "data_format": "channels_last", "dilation_rate": [1, 1], "activation": "linear", "use_bias": false, "kernel_initializer": {"class_name": "VarianceScaling", "config": {"scale": 2.0, "mode": "fan_in", "distribution": "uniform", "seed": null}}, "bias_initializer": {"class_name": "Zeros", "config": {}}, "kernel_regularizer": null, "bias_regularizer": null, "activity_regularizer": null, "kernel_constraint": null, "bias_constraint": null}, "inbound_nodes": [[["zero_padding2d_66", 0, 0, {}]]]}, {"name": "add_31", "class_name": "Add", "config": {"name": "add_31", "trainable": true, "dtype": "float32"}, "inbound_nodes": [[["stage4_unit2_conv2", 0, 0, {}], ["add_30", 0, 0, {}]]]}, {"name": "stage4_unit3_bn1", "class_name": "BatchNormalization", "config": {"name": "stage4_unit3_bn1", "trainable": true, "dtype": "float32", "axis": 3, "momentum": 0.99, "epsilon": 2e-05, "center": true, "scale": true, "beta_initializer": {"class_name": "Zeros", "config": {}}, "gamma_initializer": {"class_name": "Ones", "config": {}}, "moving_mean_initializer": {"class_name": "Zeros", "config": {}}, "moving_variance_initializer": {"class_name": "Ones", "config": {}}, "beta_regularizer": null, "gamma_regularizer": null, "beta_constraint": null, "gamma_constraint": null}, "inbound_nodes": [[["add_31", 0, 0, {}]]]}, {"name": "stage4_unit3_relu1", "class_name": "Activation", "config": {"name": "stage4_unit3_relu1", "trainable": true, "dtype": "float32", "activation": "relu"}, "inbound_nodes": [[["stage4_unit3_bn1", 0, 0, {}]]]}, {"name": "zero_padding2d_67", "class_name": "ZeroPadding2D", "config": {"name": "zero_padding2d_67", "trainable": true, "dtype": "float32", "padding": [[1, 1], [1, 1]], "data_format": "channels_last"}, "inbound_nodes": [[["stage4_unit3_relu1", 0, 0, {}]]]}, {"name": "stage4_unit3_conv1", "class_name": "Conv2D", "config": {"name": "stage4_unit3_conv1", "trainable": true, "dtype": "float32", "filters": 512, "kernel_size": [3, 3], "strides": [1, 1], "padding": "valid", "data_format": "channels_last", "dilation_rate": [1, 1], "activation": "linear", "use_bias": false, "kernel_initializer": {"class_name": "VarianceScaling", "config": {"scale": 2.0, "mode": "fan_in", "distribution": "uniform", "seed": null}}, "bias_initializer": {"class_name": "Zeros", "config": {}}, "kernel_regularizer": null, "bias_regularizer": null, "activity_regularizer": null, "kernel_constraint": null, "bias_constraint": null}, "inbound_nodes": [[["zero_padding2d_67", 0, 0, {}]]]}, {"name": "stage4_unit3_bn2", "class_name": "BatchNormalization", "config": {"name": "stage4_unit3_bn2", "trainable": true, "dtype": "float32", "axis": 3, "momentum": 0.99, "epsilon": 2e-05, "center": true, "scale": true, "beta_initializer": {"class_name": "Zeros", "config": {}}, "gamma_initializer": {"class_name": "Ones", "config": {}}, "moving_mean_initializer": {"class_name": "Zeros", "config": {}}, "moving_variance_initializer": {"class_name": "Ones", "config": {}}, "beta_regularizer": null, "gamma_regularizer": null, "beta_constraint": null, "gamma_constraint": null}, "inbound_nodes": [[["stage4_unit3_conv1", 0, 0, {}]]]}, {"name": "stage4_unit3_relu2", "class_name": "Activation", "config": {"name": "stage4_unit3_relu2", "trainable": true, "dtype": "float32", "activation": "relu"}, "inbound_nodes": [[["stage4_unit3_bn2", 0, 0, {}]]]}, {"name": "zero_padding2d_68", "class_name": "ZeroPadding2D", "config": {"name": "zero_padding2d_68", "trainable": true, "dtype": "float32", "padding": [[1, 1], [1, 1]], "data_format": "channels_last"}, "inbound_nodes": [[["stage4_unit3_relu2", 0, 0, {}]]]}, {"name": "stage4_unit3_conv2", "class_name": "Conv2D", "config": {"name": "stage4_unit3_conv2", "trainable": true, "dtype": "float32", "filters": 512, "kernel_size": [3, 3], "strides": [1, 1], "padding": "valid", "data_format": "channels_last", "dilation_rate": [1, 1], "activation": "linear", "use_bias": false, "kernel_initializer": {"class_name": "VarianceScaling", "config": {"scale": 2.0, "mode": "fan_in", "distribution": "uniform", "seed": null}}, "bias_initializer": {"class_name": "Zeros", "config": {}}, "kernel_regularizer": null, "bias_regularizer": null, "activity_regularizer": null, "kernel_constraint": null, "bias_constraint": null}, "inbound_nodes": [[["zero_padding2d_68", 0, 0, {}]]]}, {"name": "add_32", "class_name": "Add", "config": {"name": "add_32", "trainable": true, "dtype": "float32"}, "inbound_nodes": [[["stage4_unit3_conv2", 0, 0, {}], ["add_31", 0, 0, {}]]]}, {"name": "bn1", "class_name": "BatchNormalization", "config": {"name": "bn1", "trainable": true, "dtype": "float32", "axis": 3, "momentum": 0.99, "epsilon": 2e-05, "center": true, "scale": true, "beta_initializer": {"class_name": "Zeros", "config": {}}, "gamma_initializer": {"class_name": "Ones", "config": {}}, "moving_mean_initializer": {"class_name": "Zeros", "config": {}}, "moving_variance_initializer": {"class_name": "Ones", "config": {}}, "beta_regularizer": null, "gamma_regularizer": null, "beta_constraint": null, "gamma_constraint": null}, "inbound_nodes": [[["add_32", 0, 0, {}]]]}, {"name": "relu1", "class_name": "Activation", "config": {"name": "relu1", "trainable": true, "dtype": "float32", "activation": "relu"}, "inbound_nodes": [[["bn1", 0, 0, {}]]]}, {"name": "decoder_stage0_upsampling", "class_name": "UpSampling2D", "config": {"name": "decoder_stage0_upsampling", "trainable": true, "dtype": "float32", "size": [2, 2], "data_format": "channels_last", "interpolation": "nearest"}, "inbound_nodes": [[["relu1", 0, 0, {}]]]}, {"name": "decoder_stage0_concat", "class_name": "Concatenate", "config": {"name": "decoder_stage0_concat", "trainable": true, "dtype": "float32", "axis": 3}, "inbound_nodes": [[["decoder_stage0_upsampling", 0, 0, {}], ["stage4_unit1_relu1", 0, 0, {}]]]}, {"name": "decoder_stage0a_conv", "class_name": "Conv2D", "config": {"name": "decoder_stage0a_conv", "trainable": true, "dtype": "float32", "filters": 256, "kernel_size": [3, 3], "strides": [1, 1], "padding": "same", "data_format": "channels_last", "dilation_rate": [1, 1], "activation": "linear", "use_bias": false, "kernel_initializer": {"class_name": "VarianceScaling", "config": {"scale": 2.0, "mode": "fan_in", "distribution": "uniform", "seed": null}}, "bias_initializer": {"class_name": "Zeros", "config": {}}, "kernel_regularizer": null, "bias_regularizer": null, "activity_regularizer": null, "kernel_constraint": null, "bias_constraint": null}, "inbound_nodes": [[["decoder_stage0_concat", 0, 0, {}]]]}, {"name": "decoder_stage0a_bn", "class_name": "BatchNormalization", "config": {"name": "decoder_stage0a_bn", "trainable": true, "dtype": "float32", "axis": 3, "momentum": 0.99, "epsilon": 0.001, "center": true, "scale": true, "beta_initializer": {"class_name": "Zeros", "config": {}}, "gamma_initializer": {"class_name": "Ones", "config": {}}, "moving_mean_initializer": {"class_name": "Zeros", "config": {}}, "moving_variance_initializer": {"class_name": "Ones", "config": {}}, "beta_regularizer": null, "gamma_regularizer": null, "beta_constraint": null, "gamma_constraint": null}, "inbound_nodes": [[["decoder_stage0a_conv", 0, 0, {}]]]}, {"name": "decoder_stage0a_relu", "class_name": "Activation", "config": {"name": "decoder_stage0a_relu", "trainable": true, "dtype": "float32", "activation": "relu"}, "inbound_nodes": [[["decoder_stage0a_bn", 0, 0, {}]]]}, {"name": "decoder_stage0b_conv", "class_name": "Conv2D", "config": {"name": "decoder_stage0b_conv", "trainable": true, "dtype": "float32", "filters": 256, "kernel_size": [3, 3], "strides": [1, 1], "padding": "same", "data_format": "channels_last", "dilation_rate": [1, 1], "activation": "linear", "use_bias": false, "kernel_initializer": {"class_name": "VarianceScaling", "config": {"scale": 2.0, "mode": "fan_in", "distribution": "uniform", "seed": null}}, "bias_initializer": {"class_name": "Zeros", "config": {}}, "kernel_regularizer": null, "bias_regularizer": null, "activity_regularizer": null, "kernel_constraint": null, "bias_constraint": null}, "inbound_nodes": [[["decoder_stage0a_relu", 0, 0, {}]]]}, {"name": "decoder_stage0b_bn", "class_name": "BatchNormalization", "config": {"name": "decoder_stage0b_bn", "trainable": true, "dtype": "float32", "axis": 3, "momentum": 0.99, "epsilon": 0.001, "center": true, "scale": true, "beta_initializer": {"class_name": "Zeros", "config": {}}, "gamma_initializer": {"class_name": "Ones", "config": {}}, "moving_mean_initializer": {"class_name": "Zeros", "config": {}}, "moving_variance_initializer": {"class_name": "Ones", "config": {}}, "beta_regularizer": null, "gamma_regularizer": null, "beta_constraint": null, "gamma_constraint": null}, "inbound_nodes": [[["decoder_stage0b_conv", 0, 0, {}]]]}, {"name": "decoder_stage0b_relu", "class_name": "Activation", "config": {"name": "decoder_stage0b_relu", "trainable": true, "dtype": "float32", "activation": "relu"}, "inbound_nodes": [[["decoder_stage0b_bn", 0, 0, {}]]]}, {"name": "decoder_stage1_upsampling", "class_name": "UpSampling2D", "config": {"name": "decoder_stage1_upsampling", "trainable": true, "dtype": "float32", "size": [2, 2], "data_format": "channels_last", "interpolation": "nearest"}, "inbound_nodes": [[["decoder_stage0b_relu", 0, 0, {}]]]}, {"name": "decoder_stage1_concat", "class_name": "Concatenate", "config": {"name": "decoder_stage1_concat", "trainable": true, "dtype": "float32", "axis": 3}, "inbound_nodes": [[["decoder_stage1_upsampling", 0, 0, {}], ["stage3_unit1_relu1", 0, 0, {}]]]}, {"name": "decoder_stage1a_conv", "class_name": "Conv2D", "config": {"name": "decoder_stage1a_conv", "trainable": true, "dtype": "float32", "filters": 128, "kernel_size": [3, 3], "strides": [1, 1], "padding": "same", "data_format": "channels_last", "dilation_rate": [1, 1], "activation": "linear", "use_bias": false, "kernel_initializer": {"class_name": "VarianceScaling", "config": {"scale": 2.0, "mode": "fan_in", "distribution": "uniform", "seed": null}}, "bias_initializer": {"class_name": "Zeros", "config": {}}, "kernel_regularizer": null, "bias_regularizer": null, "activity_regularizer": null, "kernel_constraint": null, "bias_constraint": null}, "inbound_nodes": [[["decoder_stage1_concat", 0, 0, {}]]]}, {"name": "decoder_stage1a_bn", "class_name": "BatchNormalization", "config": {"name": "decoder_stage1a_bn", "trainable": true, "dtype": "float32", "axis": 3, "momentum": 0.99, "epsilon": 0.001, "center": true, "scale": true, "beta_initializer": {"class_name": "Zeros", "config": {}}, "gamma_initializer": {"class_name": "Ones", "config": {}}, "moving_mean_initializer": {"class_name": "Zeros", "config": {}}, "moving_variance_initializer": {"class_name": "Ones", "config": {}}, "beta_regularizer": null, "gamma_regularizer": null, "beta_constraint": null, "gamma_constraint": null}, "inbound_nodes": [[["decoder_stage1a_conv", 0, 0, {}]]]}, {"name": "decoder_stage1a_relu", "class_name": "Activation", "config": {"name": "decoder_stage1a_relu", "trainable": true, "dtype": "float32", "activation": "relu"}, "inbound_nodes": [[["decoder_stage1a_bn", 0, 0, {}]]]}, {"name": "decoder_stage1b_conv", "class_name": "Conv2D", "config": {"name": "decoder_stage1b_conv", "trainable": true, "dtype": "float32", "filters": 128, "kernel_size": [3, 3], "strides": [1, 1], "padding": "same", "data_format": "channels_last", "dilation_rate": [1, 1], "activation": "linear", "use_bias": false, "kernel_initializer": {"class_name": "VarianceScaling", "config": {"scale": 2.0, "mode": "fan_in", "distribution": "uniform", "seed": null}}, "bias_initializer": {"class_name": "Zeros", "config": {}}, "kernel_regularizer": null, "bias_regularizer": null, "activity_regularizer": null, "kernel_constraint": null, "bias_constraint": null}, "inbound_nodes": [[["decoder_stage1a_relu", 0, 0, {}]]]}, {"name": "decoder_stage1b_bn", "class_name": "BatchNormalization", "config": {"name": "decoder_stage1b_bn", "trainable": true, "dtype": "float32", "axis": 3, "momentum": 0.99, "epsilon": 0.001, "center": true, "scale": true, "beta_initializer": {"class_name": "Zeros", "config": {}}, "gamma_initializer": {"class_name": "Ones", "config": {}}, "moving_mean_initializer": {"class_name": "Zeros", "config": {}}, "moving_variance_initializer": {"class_name": "Ones", "config": {}}, "beta_regularizer": null, "gamma_regularizer": null, "beta_constraint": null, "gamma_constraint": null}, "inbound_nodes": [[["decoder_stage1b_conv", 0, 0, {}]]]}, {"name": "decoder_stage1b_relu", "class_name": "Activation", "config": {"name": "decoder_stage1b_relu", "trainable": true, "dtype": "float32", "activation": "relu"}, "inbound_nodes": [[["decoder_stage1b_bn", 0, 0, {}]]]}, {"name": "decoder_stage2_upsampling", "class_name": "UpSampling2D", "config": {"name": "decoder_stage2_upsampling", "trainable": true, "dtype": "float32", "size": [2, 2], "data_format": "channels_last", "interpolation": "nearest"}, "inbound_nodes": [[["decoder_stage1b_relu", 0, 0, {}]]]}, {"name": "decoder_stage2_concat", "class_name": "Concatenate", "config": {"name": "decoder_stage2_concat", "trainable": true, "dtype": "float32", "axis": 3}, "inbound_nodes": [[["decoder_stage2_upsampling", 0, 0, {}], ["stage2_unit1_relu1", 0, 0, {}]]]}, {"name": "decoder_stage2a_conv", "class_name": "Conv2D", "config": {"name": "decoder_stage2a_conv", "trainable": true, "dtype": "float32", "filters": 64, "kernel_size": [3, 3], "strides": [1, 1], "padding": "same", "data_format": "channels_last", "dilation_rate": [1, 1], "activation": "linear", "use_bias": false, "kernel_initializer": {"class_name": "VarianceScaling", "config": {"scale": 2.0, "mode": "fan_in", "distribution": "uniform", "seed": null}}, "bias_initializer": {"class_name": "Zeros", "config": {}}, "kernel_regularizer": null, "bias_regularizer": null, "activity_regularizer": null, "kernel_constraint": null, "bias_constraint": null}, "inbound_nodes": [[["decoder_stage2_concat", 0, 0, {}]]]}, {"name": "decoder_stage2a_bn", "class_name": "BatchNormalization", "config": {"name": "decoder_stage2a_bn", "trainable": true, "dtype": "float32", "axis": 3, "momentum": 0.99, "epsilon": 0.001, "center": true, "scale": true, "beta_initializer": {"class_name": "Zeros", "config": {}}, "gamma_initializer": {"class_name": "Ones", "config": {}}, "moving_mean_initializer": {"class_name": "Zeros", "config": {}}, "moving_variance_initializer": {"class_name": "Ones", "config": {}}, "beta_regularizer": null, "gamma_regularizer": null, "beta_constraint": null, "gamma_constraint": null}, "inbound_nodes": [[["decoder_stage2a_conv", 0, 0, {}]]]}, {"name": "decoder_stage2a_relu", "class_name": "Activation", "config": {"name": "decoder_stage2a_relu", "trainable": true, "dtype": "float32", "activation": "relu"}, "inbound_nodes": [[["decoder_stage2a_bn", 0, 0, {}]]]}, {"name": "decoder_stage2b_conv", "class_name": "Conv2D", "config": {"name": "decoder_stage2b_conv", "trainable": true, "dtype": "float32", "filters": 64, "kernel_size": [3, 3], "strides": [1, 1], "padding": "same", "data_format": "channels_last", "dilation_rate": [1, 1], "activation": "linear", "use_bias": false, "kernel_initializer": {"class_name": "VarianceScaling", "config": {"scale": 2.0, "mode": "fan_in", "distribution": "uniform", "seed": null}}, "bias_initializer": {"class_name": "Zeros", "config": {}}, "kernel_regularizer": null, "bias_regularizer": null, "activity_regularizer": null, "kernel_constraint": null, "bias_constraint": null}, "inbound_nodes": [[["decoder_stage2a_relu", 0, 0, {}]]]}, {"name": "decoder_stage2b_bn", "class_name": "BatchNormalization", "config": {"name": "decoder_stage2b_bn", "trainable": true, "dtype": "float32", "axis": 3, "momentum": 0.99, "epsilon": 0.001, "center": true, "scale": true, "beta_initializer": {"class_name": "Zeros", "config": {}}, "gamma_initializer": {"class_name": "Ones", "config": {}}, "moving_mean_initializer": {"class_name": "Zeros", "config": {}}, "moving_variance_initializer": {"class_name": "Ones", "config": {}}, "beta_regularizer": null, "gamma_regularizer": null, "beta_constraint": null, "gamma_constraint": null}, "inbound_nodes": [[["decoder_stage2b_conv", 0, 0, {}]]]}, {"name": "decoder_stage2b_relu", "class_name": "Activation", "config": {"name": "decoder_stage2b_relu", "trainable": true, "dtype": "float32", "activation": "relu"}, "inbound_nodes": [[["decoder_stage2b_bn", 0, 0, {}]]]}, {"name": "decoder_stage3_upsampling", "class_name": "UpSampling2D", "config": {"name": "decoder_stage3_upsampling", "trainable": true, "dtype": "float32", "size": [2, 2], "data_format": "channels_last", "interpolation": "nearest"}, "inbound_nodes": [[["decoder_stage2b_relu", 0, 0, {}]]]}, {"name": "decoder_stage3_concat", "class_name": "Concatenate", "config": {"name": "decoder_stage3_concat", "trainable": true, "dtype": "float32", "axis": 3}, "inbound_nodes": [[["decoder_stage3_upsampling", 0, 0, {}], ["relu0", 0, 0, {}]]]}, {"name": "decoder_stage3a_conv", "class_name": "Conv2D", "config": {"name": "decoder_stage3a_conv", "trainable": true, "dtype": "float32", "filters": 32, "kernel_size": [3, 3], "strides": [1, 1], "padding": "same", "data_format": "channels_last", "dilation_rate": [1, 1], "activation": "linear", "use_bias": false, "kernel_initializer": {"class_name": "VarianceScaling", "config": {"scale": 2.0, "mode": "fan_in", "distribution": "uniform", "seed": null}}, "bias_initializer": {"class_name": "Zeros", "config": {}}, "kernel_regularizer": null, "bias_regularizer": null, "activity_regularizer": null, "kernel_constraint": null, "bias_constraint": null}, "inbound_nodes": [[["decoder_stage3_concat", 0, 0, {}]]]}, {"name": "decoder_stage3a_bn", "class_name": "BatchNormalization", "config": {"name": "decoder_stage3a_bn", "trainable": true, "dtype": "float32", "axis": 3, "momentum": 0.99, "epsilon": 0.001, "center": true, "scale": true, "beta_initializer": {"class_name": "Zeros", "config": {}}, "gamma_initializer": {"class_name": "Ones", "config": {}}, "moving_mean_initializer": {"class_name": "Zeros", "config": {}}, "moving_variance_initializer": {"class_name": "Ones", "config": {}}, "beta_regularizer": null, "gamma_regularizer": null, "beta_constraint": null, "gamma_constraint": null}, "inbound_nodes": [[["decoder_stage3a_conv", 0, 0, {}]]]}, {"name": "decoder_stage3a_relu", "class_name": "Activation", "config": {"name": "decoder_stage3a_relu", "trainable": true, "dtype": "float32", "activation": "relu"}, "inbound_nodes": [[["decoder_stage3a_bn", 0, 0, {}]]]}, {"name": "decoder_stage3b_conv", "class_name": "Conv2D", "config": {"name": "decoder_stage3b_conv", "trainable": true, "dtype": "float32", "filters": 32, "kernel_size": [3, 3], "strides": [1, 1], "padding": "same", "data_format": "channels_last", "dilation_rate": [1, 1], "activation": "linear", "use_bias": false, "kernel_initializer": {"class_name": "VarianceScaling", "config": {"scale": 2.0, "mode": "fan_in", "distribution": "uniform", "seed": null}}, "bias_initializer": {"class_name": "Zeros", "config": {}}, "kernel_regularizer": null, "bias_regularizer": null, "activity_regularizer": null, "kernel_constraint": null, "bias_constraint": null}, "inbound_nodes": [[["decoder_stage3a_relu", 0, 0, {}]]]}, {"name": "decoder_stage3b_bn", "class_name": "BatchNormalization", "config": {"name": "decoder_stage3b_bn", "trainable": true, "dtype": "float32", "axis": 3, "momentum": 0.99, "epsilon": 0.001, "center": true, "scale": true, "beta_initializer": {"class_name": "Zeros", "config": {}}, "gamma_initializer": {"class_name": "Ones", "config": {}}, "moving_mean_initializer": {"class_name": "Zeros", "config": {}}, "moving_variance_initializer": {"class_name": "Ones", "config": {}}, "beta_regularizer": null, "gamma_regularizer": null, "beta_constraint": null, "gamma_constraint": null}, "inbound_nodes": [[["decoder_stage3b_conv", 0, 0, {}]]]}, {"name": "decoder_stage3b_relu", "class_name": "Activation", "config": {"name": "decoder_stage3b_relu", "trainable": true, "dtype": "float32", "activation": "relu"}, "inbound_nodes": [[["decoder_stage3b_bn", 0, 0, {}]]]}, {"name": "decoder_stage4_upsampling", "class_name": "UpSampling2D", "config": {"name": "decoder_stage4_upsampling", "trainable": true, "dtype": "float32", "size": [2, 2], "data_format": "channels_last", "interpolation": "nearest"}, "inbound_nodes": [[["decoder_stage3b_relu", 0, 0, {}]]]}, {"name": "decoder_stage4a_conv", "class_name": "Conv2D", "config": {"name": "decoder_stage4a_conv", "trainable": true, "dtype": "float32", "filters": 16, "kernel_size": [3, 3], "strides": [1, 1], "padding": "same", "data_format": "channels_last", "dilation_rate": [1, 1], "activation": "linear", "use_bias": false, "kernel_initializer": {"class_name": "VarianceScaling", "config": {"scale": 2.0, "mode": "fan_in", "distribution": "uniform", "seed": null}}, "bias_initializer": {"class_name": "Zeros", "config": {}}, "kernel_regularizer": null, "bias_regularizer": null, "activity_regularizer": null, "kernel_constraint": null, "bias_constraint": null}, "inbound_nodes": [[["decoder_stage4_upsampling", 0, 0, {}]]]}, {"name": "decoder_stage4a_bn", "class_name": "BatchNormalization", "config": {"name": "decoder_stage4a_bn", "trainable": true, "dtype": "float32", "axis": 3, "momentum": 0.99, "epsilon": 0.001, "center": true, "scale": true, "beta_initializer": {"class_name": "Zeros", "config": {}}, "gamma_initializer": {"class_name": "Ones", "config": {}}, "moving_mean_initializer": {"class_name": "Zeros", "config": {}}, "moving_variance_initializer": {"class_name": "Ones", "config": {}}, "beta_regularizer": null, "gamma_regularizer": null, "beta_constraint": null, "gamma_constraint": null}, "inbound_nodes": [[["decoder_stage4a_conv", 0, 0, {}]]]}, {"name": "decoder_stage4a_relu", "class_name": "Activation", "config": {"name": "decoder_stage4a_relu", "trainable": true, "dtype": "float32", "activation": "relu"}, "inbound_nodes": [[["decoder_stage4a_bn", 0, 0, {}]]]}, {"name": "decoder_stage4b_conv", "class_name": "Conv2D", "config": {"name": "decoder_stage4b_conv", "trainable": true, "dtype": "float32", "filters": 16, "kernel_size": [3, 3], "strides": [1, 1], "padding": "same", "data_format": "channels_last", "dilation_rate": [1, 1], "activation": "linear", "use_bias": false, "kernel_initializer": {"class_name": "VarianceScaling", "config": {"scale": 2.0, "mode": "fan_in", "distribution": "uniform", "seed": null}}, "bias_initializer": {"class_name": "Zeros", "config": {}}, "kernel_regularizer": null, "bias_regularizer": null, "activity_regularizer": null, "kernel_constraint": null, "bias_constraint": null}, "inbound_nodes": [[["decoder_stage4a_relu", 0, 0, {}]]]}, {"name": "decoder_stage4b_bn", "class_name": "BatchNormalization", "config": {"name": "decoder_stage4b_bn", "trainable": true, "dtype": "float32", "axis": 3, "momentum": 0.99, "epsilon": 0.001, "center": true, "scale": true, "beta_initializer": {"class_name": "Zeros", "config": {}}, "gamma_initializer": {"class_name": "Ones", "config": {}}, "moving_mean_initializer": {"class_name": "Zeros", "config": {}}, "moving_variance_initializer": {"class_name": "Ones", "config": {}}, "beta_regularizer": null, "gamma_regularizer": null, "beta_constraint": null, "gamma_constraint": null}, "inbound_nodes": [[["decoder_stage4b_conv", 0, 0, {}]]]}, {"name": "decoder_stage4b_relu", "class_name": "Activation", "config": {"name": "decoder_stage4b_relu", "trainable": true, "dtype": "float32", "activation": "relu"}, "inbound_nodes": [[["decoder_stage4b_bn", 0, 0, {}]]]}, {"name": "final_conv", "class_name": "Conv2D", "config": {"name": "final_conv", "trainable": true, "dtype": "float32", "filters": 5, "kernel_size": [3, 3], "strides": [1, 1], "padding": "same", "data_format": "channels_last", "dilation_rate": [1, 1], "activation": "linear", "use_bias": true, "kernel_initializer": {"class_name": "VarianceScaling", "config": {"scale": 1.0, "mode": "fan_avg", "distribution": "uniform", "seed": null}}, "bias_initializer": {"class_name": "Zeros", "config": {}}, "kernel_regularizer": null, "bias_regularizer": null, "activity_regularizer": null, "kernel_constraint": null, "bias_constraint": null}, "inbound_nodes": [[["decoder_stage4b_relu", 0, 0, {}]]]}, {"name": "sigmoid", "class_name": "Activation", "config": {"name": "sigmoid", "trainable": true, "dtype": "float32", "activation": "sigmoid"}, "inbound_nodes": [[["final_conv", 0, 0, {}]]]}], "input_layers": [["data", 0, 0]], "output_layers": [["sigmoid", 0, 0]]}, "keras_version": "2.3.1", "backend": "tensorflow"}